…
            "Downloading https://ultralytics.com/assets/Arial.ttf to '/root/.config/Ultralytics/Arial.ttf'...\n"
          ]
        },
        {
          "output_type": "stream",
          "name": "stderr",
          "text": [
            "100%|â–ˆâ–ˆâ–ˆâ–ˆâ–ˆâ–ˆâ–ˆâ–ˆâ–ˆâ–ˆ| 755k/755k [00:00<00:00, 14.8MB/s]\n"
          ]
        },
        {
          "output_type": "stream",
          "name": "stdout",
          "text": [
            "Overriding model.yaml nc=80 with nc=2\n",
            "\n",
            "                   from  n    params  module                                       arguments                     \n",
            "  0                  -1  1      1856  ultralytics.nn.modules.conv.Conv             [3, 64, 3, 2]                 \n",
            "  1                  -1  1     73984  ultralytics.nn.modules.conv.Conv             [64, 128, 3, 2]               \n",
            "  2                  -1  1    212864  ultralytics.nn.modules.block.RepNCSPELAN4    [128, 256, 128, 64, 1]        \n",
            "  3                  -1  1    164352  ultralytics.nn.modules.block.ADown           [256, 256]                    \n",
            "  4                  -1  1    847616  ultralytics.nn.modules.block.RepNCSPELAN4    [256, 512, 256, 128, 1]       \n",
            "  5                  -1  1    656384  ultralytics.nn.modules.block.ADown           [512, 512]                    \n",
            "  6                  -1  1   2857472  ultralytics.nn.modules.block.RepNCSPELAN4    [512, 512, 512, 256, 1]       \n",
            "  7                  -1  1    656384  ultralytics.nn.modules.block.ADown           [512, 512]                    \n",
            "  8                  -1  1   2857472  ultralytics.nn.modules.block.RepNCSPELAN4    [512, 512, 512, 256, 1]       \n",
            "  9                  -1  1    656896  ultralytics.nn.modules.block.SPPELAN         [512, 512, 256]               \n",
            " 10                  -1  1         0  torch.nn.modules.upsampling.Upsample         [None, 2, 'nearest']          \n",
            " 11             [-1, 6]  1         0  ultralytics.nn.modules.conv.Concat           [1]                           \n",
            " 12                  -1  1   3119616  ultralytics.nn.modules.block.RepNCSPELAN4    [1024, 512, 512, 256, 1]      \n",
            " 13                  -1  1         0  torch.nn.modules.upsampling.Upsample         [None, 2, 'nearest']          \n",
            " 14             [-1, 4]  1         0  ultralytics.nn.modules.conv.Concat           [1]                           \n",
            " 15                  -1  1    912640  ultralytics.nn.modules.block.RepNCSPELAN4    [1024, 256, 256, 128, 1]      \n",
            " 16                  -1  1    164352  ultralytics.nn.modules.block.ADown           [256, 256]                    \n",
            " 17            [-1, 12]  1         0  ultralytics.nn.modules.conv.Concat           [1]                           \n",
            " 18                  -1  1   2988544  ultralytics.nn.modules.block.RepNCSPELAN4    [768, 512, 512, 256, 1]       \n",
            " 19                  -1  1    656384  ultralytics.nn.modules.block.ADown           [512, 512]                    \n",
            " 20             [-1, 9]  1         0  ultralytics.nn.modules.conv.Concat           [1]                           \n",
            " 21                  -1  1   3119616  ultralytics.nn.modules.block.RepNCSPELAN4    [1024, 512, 512, 256, 1]      \n",
            " 22        [15, 18, 21]  1   5584342  ultralytics.nn.modules.head.Detect           [2, [256, 512, 512]]          \n",
            "YOLOv9c summary: 618 layers, 25,530,774 parameters, 25,530,758 gradients, 103.7 GFLOPs\n",
            "\n",
            "Transferred 931/937 items from pretrained weights\n",
            "\u001b[34m\u001b[1mTensorBoard: \u001b[0mStart with 'tensorboard --logdir runs/detect/train2', view at http://localhost:6006/\n",
            "Freezing layer 'model.22.dfl.conv.weight'\n",
…
